HealthAIoT/worker/best_model.pth (torch, 53218 bytes, 14 tensors)

fc1.weight f4 [128, 21]
00000000: 51be 01be 075f 2dbd 2fcf 1a3e 768b 31ba
00000010: 6e8a c5bd 3374 b2bc 1ea8 fe3d 4c6c f53b
00000020: cdd7 d93d df7e d43c 9395 f73d 8041 2c3d
00000030: a8ff 52be 1cc5 163e f0f6 273e a407 d63d
00000040: 6a65 a83d 31c2 26be d059 4b3e 011f f83d
00000050: 51d9 113e 8a37 7dbd 1ed9 9fbd 1c1c 55be
00000060: a245 573e a544 2f3e 7d3e 6b3d 28eb 98bd
00000070: 7044 ac3d 7be0 013e c6e8 65bc 2b22 053e
00000080: c56e b63d ad3c 45bc ca97 00be fdd8 0a3d
00000090: 2ca5 c43d f2ae 463d 378c 543d af79 37be
000000a0: af1b 4cbd 1d02 2c3d 5a7f 443e 9a53 8f3d
000000b0: 3ac3 8a3d 44ed 0e3e 7e41 243c ca03 36bc
000000c0: c2b9 2fbe 63b4 3b3e 3497 02be 9a3a 193e
000000d0: 03d7 093e 5ea5 b3bd 693c 353e 2b5d afbd
000000e0: ab99 583d e987 25be 011d a2bd 72ee 973d
000000f0: 3145 da3d 43cd eebd e691 94bd 6f9f 043e
00000100: 5465 2b3e 4665 d23d d54e c73d 9cd1 873d
00000110: 83a5 1aba 745c 31bd 064f 8cbd eebb 38be
00000120: 5096 e03b 9581 1fbe 4e8e 81bd 1346 73bd
00000130: cd0c 3dbd 4beb cf3d dc64 1d3d 7060 adbd
00000140: ee6c adbc 7ad0 e73d 53e9 ef3d 489d 4c3d
00000150: b582 f83d 73f7 c23d 5055 45be 0b14 46be
00000160: 3e5d 383e 48c3 2abe f043 cfbb 0b7e bbbc
00000170: 588d 58bb 1659 363e 2208 51bd 10cd 34be
00000180: 90bb 3d3e de3d e63d 3e68 10be 3770 23be
00000190: 6904 6e3c 2933 473d f339 2e3e ee00 ecbd
000001a0: 48f8 71bd 7251 46be d062 413e 073e 1e3e
000001b0: 7967 dc3d ce2a a0bd aea8 0c3e d683 3bbe
000001c0: e8b7 63bd 4dfd 1b3e c716 123e d7a0 0fbe
000001d0: f68d d53d 788c d73b f652 2e3e f656 ed3d
000001e0: 5e74 4d3e b88e 9fbd 1a9a eebd e62f 653d
000001f0: d5b2 4cbe de39 25bd aefa 41bd 45cc 2cbe
00000200: f72d 663d d4db 033e b734 583b f98e 2c3e
00000210: 5525 923c 087d 62bd bee5 4f3d a02b 58bd
00000220: 4cb6 89bd d162 2d3e bbdb 6fbd 1bbc 363e
00000230: 6fac 17be 8d89 27be 387b 323c 79da f73c
00000240: 3ca3 a83c 47dc 83bc 5f6b 84bd 1162 31bd
00000250: 08ae fbbd 5b73 5b3c 19e4 a43d 3266 13be
00000260: 2529 95bd cff2 293c 0797 113e 125f 0cbe
00000270: 5711 44be 629e 493d ef8d b5bc e81f 07be
00000280: 7558 373e 566a 263e e3e3 23bd ce54 6e3d
00000290: 055b e63d 42b2 ce3d dd4b 98bd c101 1abe
000002a0: d5e5 c43d 849e 193e 5628 f23d 56cc d2bd
000002b0: be8c 4f3d a587 c5bd cf65 b43c 1d3e d7bd
000002c0: cd4d f23d e4c3 d2bd a868 cebd 1772 b3bd
000002d0: 1c50 e9bd 0e9b 373e 31f8 2bbe 7e60 4abd
000002e0: 6ede 94bd 55ca 12be d554 c53d c548 a23d
000002f0: 10c0 893c 1e68 cbbd 75ef ca3d 3ac7 1f3d
00000300: d1aa 12be 91f7 93bc 2f76 013e a37b 50be
00000310: 4cb6 e2bc 18e3 f2bd 6371 013e d6d9 30bd
00000320: 7b8e f63d 3a7e e6bd 2749 2ebd 2332 74bc
00000330: 74cb 363e 1c49 22be f641 6ebb 8451 debd
00000340: c3ab e3bc bb70 32bd 0a0e 1abe d46e 2abd
00000350: 7271 1bbe d689 66bd 85d7 00be 28b1 1e3e
00000360: 8e06 263e 7d69 423e 00bc 96bc b6c2 2c3e
00000370: 70d0 3cbe 440c a33d 1751 4f3e d360 8abc
00000380: 7034 283e 011b 9dbc 9a4d d43c ff75 46be
00000390: ecee 7ebd dbcd 79bd 533e 0fbe eadc 02bd
000003a0: 4229 8ebd 35a3 bebc 772b 17be 2e98 a53d
000003b0: e566 9b3d 6741 243e 26cb c2bd efe0 023d
000003c0: d244 073e fe46 0e3e 42c4 4d3e 72fe 2abd
000003d0: d6d1 413e 1ffa 2abe 90f9 3d3e 7fa0 1b3c
000003e0: 077c 8c3b 302f e33c a1c4 263e 5ac3 35be
000003f0: 6834 0c3e dc26 52bd 5b53 4dbe eb65 e63d
-0.12670256 -0.042326953 0.15118097 -0.00067727955 -0.09645544 -0.021783924 0.124344096 0.0074897166
0.10636864 0.025939403 0.12089076 0.042054653 -0.20605338 0.14723629 0.16402793 0.10450676
0.08222468 -0.16285016 0.1985848 0.121152885 0.14243056 -0.061820544 -0.07805084 -0.20811504
0.21022657 0.1711603 0.05743264 -0.074667275 0.08411491 0.12683289 -0.014032548 0.13001315
0.08907846 -0.012038392 -0.12557903 0.033898342 0.096018165 0.048506685 0.05189153 -0.17917512
-0.04983109 0.041994203 0.19189206 0.069983676 0.06775518 0.13957697 0.01002538 -0.011109302
-0.17160705 0.18330531 -0.12752992 0.14963761 0.13460927 -0.08771776 0.17698826 -0.08562692
0.052880924 -0.16165127 -0.07915688 0.07418527 0.106577285 -0.11660244 -0.072543904 0.12951444
0.16737872 0.102732226 0.09731833 0.06631777 -0.0005899297 -0.04330106 -0.0685101 -0.1804044
0.006853856 -0.15576775 -0.063259706 -0.059393 -0.046154786 0.101523004 0.038426265 -0.084656596
-0.021170106 0.113190606 0.11714425 0.049954683 0.121343054 0.095198534 -0.19270825 -0.19343583
0.18004319 -0.16676056 -0.0063252375 -0.02288725 -0.0033043232 0.17807421 -0.051033147 -0.1765635
0.1852858 0.11242269 -0.14102265 -0.15960775 0.014527419 0.048632775 0.17014293 -0.11523615
-0.05907467 -0.19367006 0.1888535 0.15453349 0.10761923 -0.07820664 0.13736221 -0.1831201
-0.05559531 0.15233345 0.14266501 -0.140262 0.104274675 0.0065780245 0.17023835 0.11588852
0.20063922 -0.07790893 -0.11650486 0.055953883 -0.19990094 -0.04033839 -0.047358207 -0.16874798
0.05619618 0.12876827 0.0032990405 0.16851415 0.017840067 -0.05529502 0.05075621 -0.05277598
-0.067242235 0.16932227 -0.05855916 0.17845194 -0.14811872 -0.16361065 0.010893635 0.030255543
0.020585649 -0.016096247 -0.06465792 -0.043306414 -0.12289053 0.013394202 0.08051319 -0.14394453
-0.07283238 0.0103728315 0.14217769 -0.13708141 -0.1914724 0.04922331 -0.022162406 -0.13195765
0.17904837 0.16251501 -0.04001225 0.058186345 0.11247829 0.10092594 -0.07436345 -0.15039732
0.096141495 0.15001875 0.118241 -0.1029288 0.05067133 -0.09645013 0.022021202 -0.10509894
0.118312456 -0.102912694 -0.10078555 -0.08761995 -0.11392233 0.17930242 -0.16793896 -0.04940843
-0.072689876 -0.14334996 0.09635321 0.07924036 0.016815215 -0.09931968 0.09908954 0.039008357
-0.14322974 -0.018062385 0.1264274 -0.20359664 -0.027674817 -0.11859721 0.1264091 -0.043176495
0.12038895 -0.112545446 -0.042550232 -0.014904532 0.17851049 -0.15848202 -0.0036355234 -0.108553916
-0.027791863 -0.04356454 -0.15044418 -0.0416096 -0.15179995 -0.056283794 -0.12582214 0.15497267
0.16213438 0.18985553 -0.018400192 0.16871151 -0.18438888 0.07961324 0.20245777 -0.016891873
0.16426253 -0.019177916 0.02591591 -0.1938095 -0.062239572 -0.060987335 -0.13988619 -0.03194896
-0.06941463 -0.023271183 -0.14762674 0.080856666 0.07587985 0.16040574 -0.09511404 0.031952795
0.13209847 0.13894269 0.20094398 -0.041746564 0.18927702 -0.16696976 0.18552232 0.0094987145
0.004287246 0.027732462 0.16285945 -0.17750302 0.13691866 -0.05130659 -0.20051329 0.11249908

fc1.bias f4 [128]
00000000: 67bb 3bb8 6237 afb3 0906 3b38 879f 6ab8
00000010: a584 9ab6 3ab8 89b6 abf9 ebb7 d0ae 0b37
00000020: 8891 5b35 3123 de37 aa92 7fb6 f67f 9737
00000030: cd94 d9b4 d3dc 9537 97c1 5fb6 b26c 9137
00000040: a95a d637 2bf0 4fb7 712a 3db8 346f 0038
00000050: 4577 c435 2aa2 b337 834c 4238 c7b0 01b8
00000060: 5e14 5f36 ef00 75b8 aadb 1cb7 2f6e dcb7
00000070: 8b11 f037 d6d7 ba36 bcd0 1638 d96d 86b7
00000080: e721 a9b6 02b4 2235 7c5a 0f37 55a8 30b7
00000090: 45b5 67b6 1276 8337 62b1 0c37 f46e bdb8
000000a0: ca7b 5037 a39a c5b6 930a 2938 1737 5536
000000b0: 15f0 f037 6e39 9fb7 2a99 62b7 f727 fd37
000000c0: 801a a336 c640 b937 f170 a6b7 be44 c834
000000d0: 2fa8 5b38 a3d8 c2b6 789b ccb8 aa98 cc35
000000e0: f809 4f37 4b14 87b7 672d 4938 762b c8b5
000000f0: 6808 e0b5 7556 6438 1288 b4b7 4362 b737
00000100: 7d5c 5438 df15 99b7 5bd2 2138 05dc 8638
00000110: b7c9 ccb6 2342 24b8 b81b e6b7 e5d7 65b7
00000120: 3cfb a233 2187 8c37 d1a1 0bb8 a145 dab4
00000130: 781d 89b6 9b19 be37 8aac 3538 21e5 a9b7
00000140: e835 1235 684e 8ab8 00aa 9336 c6e1 50b5
00000150: 5bd0 1f38 bea6 02b7 eb0c b537 8fc2 10b8
00000160: 1b97 ab37 e476 e8b7 025e bd37 ec66 dd37
00000170: cfe2 bbb7 d6f5 c2b7 50cc 23b7 0539 8036
00000180: 6955 95b7 5575 20b8 4ba5 f937 d5f6 be37
00000190: 304d d136 5b4b fbb6 0dc4 3038 d03f a9b6
000001a0: 57b9 a638 4864 e936 159b ad37 55e4 0138
000001b0: 853e aab6 01e8 43b7 7afa 6438 c210 f2b6
000001c0: a522 4cb7 8724 4d38 de3a 2237 43f6 b038
000001d0: b496 25b7 95ac 4fb8 a03d 9e36 b38c a6b7
000001e0: 1a2a b2b7 c292 f237 24cb 2bb7 838f 86b7
000001f0: 4b93 40b5 5a6a 29b7 1b57 45b8 f178 eeb7
-4.4758806e-05 -8.1591466e-08 4.4589895e-05 -5.593852e-05 -4.6049995e-06 -4.104365e-06 -2.8130444e-05 8.325747e-06
8.1795633e-07 2.648085e-05 -3.808333e-06 1.806019e-05 -4.0527667e-07 1.7865013e-05 -3.3342274e-06 1.7335962e-05
2.5553005e-05 -1.239408e-05 -4.5100638e-05 3.0621144e-05 1.463785e-06 2.1413976e-05 4.632446e-05 -3.0920633e-05
3.3241445e-06 -5.841342e-05 -9.349469e-06 -2.6277352e-05 2.8618399e-05 5.5683586e-06 3.5957186e-05 -1.6025197e-05
-5.0405392e-06 6.061165e-07 8.544532e-06 -1.052961e-05 -3.4527195e-06 1.5671398e-05 8.38595e-06 -9.032889e-05
1.2426588e-05 -5.8890596e-06 4.0302588e-05 3.177154e-06 2.8722026e-05 -1.898102e-05 -1.3506311e-05 3.017856e-05
4.8608636e-06 2.2083881e-05 -1.9841335e-05 3.730292e-07 5.2370302e-05 -5.8068704e-06 -9.756436e-05 1.5243616e-06
1.23404825e-05 -1.6102704e-05 4.796442e-05 -1.491381e-06 -1.6691747e-06 5.4439955e-05 -2.1521035e-05 2.1861057e-05
5.0630875e-05 -1.8249206e-05 3.85813e-05 6.4306e-05 -6.1031565e-06 -3.916224e-05 -2.7431044e-05 -1.36997305e-05
7.589412e-08 1.6752225e-05 -3.3290886e-05 -4.0656326e-07 -4.086349e-06 2.2661688e-05 4.3314452e-05 -2.0253066e-05
5.446768e-07 -6.594957e-05 4.400732e-06 -7.781458e-07 3.81026e-05 -7.7874265e-06 2.1582897e-05 -3.4513472e-05
2.0455152e-05 -2.7711918e-05 2.2574332e-05 2.639318e-05 -2.2397753e-05 -2.3241078e-05 -9.763127e-06 3.821335e-06
-1.7801956e-05 -3.8256247e-05 2.9760084e-05 2.2764705e-05 6.237671e-06 -7.4891555e-06 4.2144256e-05 -5.0440212e-06
7.950019e-05 6.9556154e-06 2.0695423e-05 3.0968647e-05 -5.073673e-06 -1.1676923e-05 5.459271e-05 -7.214113e-06
-1.2167414e-05 4.8909827e-05 9.6696585e-06 8.438204e-05 -9.869855e-06 -4.9513375e-05 4.715941e-06 -1.985426e-05
-2.1238859e-05 2.8916988e-05 -1.0239692e-05 -1.6040873e-05 -7.1739913e-07 -1.0097947e-05 -4.7049583e-05 -2.8428129e-05

bn1.weight f4 [128]
00000000: d782 7f3f d51a 7e3f 1818 813f b01b 7f3f
00000010: 85fe 803f 544c 7c3f 6eae 813f d424 813f
00000020: a136 813f 3e16 813f a88d 7f3f 92ba 7c3f
00000030: 60b4 813f a365 7a3f 048c 7e3f b4ec 7d3f
00000040: 0637 7f3f 1d03 813f 8514 7f3f 20d9 7d3f
00000050: d3e9 7c3f 19a4 7c3f ef5f 7e3f 48b6 7e3f
00000060: b9de 813f e168 833f 2cda 7d3f 6182 803f
00000070: 7dfd 813f 7faf 803f 5d4c 803f 15f3 7f3f
00000080: 4cfb 7e3f ef6b 813f c539 813f 9860 7f3f
00000090: c174 7c3f 792c 813f 85f7 7f3f 9068 803f
000000a0: af7c 7d3f b72e 7e3f a536 7c3f 4df8 803f
000000b0: d778 803f 480e 803f e4b2 7c3f ea17 813f
000000c0: 5870 803f 9cda 7d3f 8614 823f 882f 7d3f
000000d0: b610 803f 7b24 813f 644c 7b3f 4ffd 803f
000000e0: 5b7d 7d3f f99f 7f3f 2355 803f 4a80 7a3f
000000f0: db4f 7a3f 9444 803f d5ea 7e3f fe4f 813f
00000100: 5bf2 823f f6f0 7f3f c763 7f3f a0fe 803f
00000110: f4ca 7d3f 4b12 803f 80c1 7e3f 2a2b 813f
00000120: 7901 7b3f 2776 7c3f 55f6 7d3f 0bb8 813f
00000130: 5ce0 813f c28f 813f 0442 803f d544 813f
00000140: efb6 7e3f 81c1 813f eae8 803f 5e12 7e3f
00000150: b879 7b3f 29c4 7d3f d0e6 7a3f 9bd0 7c3f
00000160: cb58 7e3f b1cc 7c3f 244d 803f 2105 803f
00000170: 0547 813f 0644 803f b04a 813f cf4a 7e3f
00000180: bbe7 813f e0ad 803f 1abc 7f3f a633 7e3f
00000190: d741 823f 19e4 813f a95f 813f 5fae 7d3f
000001a0: 0730 843f d5ca 803f 191f 803f fbaf 7d3f
000001b0: ed92 803f e1cb 803f 39e8 7d3f a794 813f
000001c0: 0e1d 813f 9fe6 833f 3f50 7f3f 472c 813f
000001d0: fe84 813f d5a7 7f3f c1e5 813f 399e 7e3f
000001e0: de4c 7c3f b06c 813f 16cb 7b3f fe0f 803f
000001f0: ac98 803f be69 7d3f 6ba8 7f3f 42f6 7f3f
0.9980902 0.9925969 1.0085478 0.9965162 1.0077673 0.9855397 1.0131357 1.0089364
1.0094796 1.0084913 0.99825525 0.98722184 1.0133171 0.97811335 0.99432397 0.99189305
0.99693334 1.0079075 0.99640685 0.9915943 0.9879429 0.98687893 0.99365133 0.9949689
1.0146095 1.0266382 0.9916103 1.0039788 1.0155483 1.0053557 1.0023304 0.9998029
0.996022 1.0111064 1.0095755 0.99756765 0.9861565 1.0091697 0.9998706 1.003191
0.9901838 0.9929003 0.9852088 1.0075775 1.0036877 1.0004358 0.98710465 1.0085423
1.0034285 0.99161696 1.0162513 0.9890065 1.00051 1.0089258 0.9816344 1.0077304
0.990194 0.99853474 1.0025982 0.97852004 0.977781 1.0020928 0.99577075 1.0102537
1.0230211 0.9997705 0.99761623 1.0077705 0.99137807 1.0005583 0.9951401 1.0091298
0.9804912 0.98617786 0.99204 1.013429 1.0146594 1.0121996 1.0020146 1.0099131
0.99497885 1.0137178 1.007108 0.99246776 0.98232603 0.9912744 0.9800844 0.98755807
0.9935424 0.98749834 1.0023541 1.0001565 1.0099798 1.0020759 1.0100918 0.993329
1.0148844 1.0053062 0.99896395 0.9929756 1.0176343 1.0147735 1.0107318 0.99094194
1.0327157 1.00619 1.000949 0.9909665 1.0044838 1.0062219 0.9918247 1.012349
1.0086992 1.0304755 0.9973182 1.0091637 1.0118711 0.99865466 1.014824 0.9946018
0.9855479 1.0111294 0.9835676 1.000488 1.0046592 0.98989475 0.9986636 0.99985135

bn1.bias f4 [128]
00000000: 10a3 0f3b 186c 0bbc da52 163c 6e7f 213b
00000010: 5731 c33a 74d1 80bc 492d 923c 1e9a be3c
00000020: 9531 af3c ef60 4c3c 1a96 62bb 940b b7bb
00000030: 57d2 813b 20d2 aebc 44d4 3b3a 5c69 f6bb
00000040: 6f22 0cbc d15f 243c f78e febb 8726 07bc
00000050: 6dde eabb 36f6 dcbb 8427 06bc 4716 d5ba
00000060: 4d07 0c3c e810 8a3c e57d 14bc 13e8 c83b
00000070: a719 873c 0b1a 7fba eff1 ae3c fda1 98bb
00000080: e4fa 0a3c 95af 0c3c 7fe9 353b 50d0 52bb
00000090: d246 8c3b e8c6 723b d8b1 3d3a 9329 2d3c
000000a0: 0592 66bc 2af2 12bb 109d 5ebc 3782 a53b
000000b0: a06e 77bb e814 de3b 8fc7 8abc 6f29 7f3c
000000c0: 7226 a73c 9acf 5fbc 92ec 403b ab0c d9bb
000000d0: 69a3 773c c8f8 803c ef4e 57bb c682 133c
000000e0: 8665 42bb d238 843b 21ec b0bb 6bd8 febb
000000f0: 6d0f edbb 194a bdbb 29af 853b 40ee 953c
00000100: 9d8f a83c 12f1 e13a 0b56 c9bb dd58 8f3c
00000110: 23ff 8b3b d87e 0b3c dd8c 6bbc 5971 dc3b
00000120: ac61 89bc a6fd 42bc cdd7 e0bb 3369 4f3c
00000130: 0f0e 0b3c f5b7 8e3c 3596 b23b feb8 503c
00000140: b7df 26bc 5f76 733c 8e85 2f3c ff44 023c
00000150: b54e a2bc d959 50bc 9a72 b2bc d235 17bc
00000160: 5e7f 813b 18ed 6ebb 2684 d73b 9a12 923b
00000170: c9ce 733c 9c9f 583c 9a48 5d3c bd59 59bc
00000180: 78a9 9a3c a6b3 693c aed8 c8ba 5fa8 95bb
00000190: 2d9e 273c 4676 533c 4817 2c3c c0f8 12bc
000001a0: 9900 d93c 8d0c f13a 80c0 28bb deea 79bb
000001b0: 96f2 233c 7759 1a3a 3de4 70bc da46 563c
000001c0: bf14 303c f471 c23c 7a99 9cbb f2aa d43b
000001d0: f403 a33b 9b2d d53b 3ffe 4e3c 04fd 45bc
000001e0: 5352 de39 713c 233c 3988 7ebc cded fa3a
000001f0: b4e7 d1b9 ea71 c3ba 57cb 703a 9337 e43a
0.0021917261 -0.008509658 0.009175027 0.0024642604 0.0014892024 -0.015724875 0.01784386 0.023266848
0.021385947 0.012474283 -0.003457433 -0.005586097 0.003961842 -0.02134043 0.0007165114 -0.007519884
-0.0085531315 0.01003261 -0.0077685076 -0.008248932 -0.0071676285 -0.006743218 -0.008188132 -0.001625725
0.0085466625 0.016853765 -0.009063219 0.006131181 0.016491724 -0.0009731359 0.021355597 -0.0046579824
0.008482669 0.008586784 0.0027757583 -0.003216762 0.0042809034 0.0037044827 0.00072362786 0.010568994
-0.0140729 -0.0022422173 -0.013587251 0.005050923 -0.0037755147 0.0067773946 -0.01694086 0.015573843
0.020404074 -0.013660336 0.0029437882 -0.0066238246 0.015114644 0.015743628 -0.0032853445 0.009003347
-0.0029662563 0.004035094 -0.0053992425 -0.007777264 -0.007234505 -0.0057766554 0.0040797186 0.018302083
0.020576293 0.0017237982 -0.0061442903 0.017498428 0.004272358 0.008514129 -0.014376846 0.0067273793
-0.016770206 -0.011901295 -0.006861663 0.012659359 0.008487239 0.017421702 0.005450035 0.012739418
-0.010185174 0.014859765 0.010712994 0.00795102 -0.019812921 -0.012716734 -0.021783162 -0.00922914
0.003951951 -0.0036457237 0.0065770326 0.004457784 0.014880844 0.013221648 0.013506079 -0.013266024
0.018879637 0.014264023 -0.0015323365 -0.0045671905 0.010230583 0.012906617 0.010503598 -0.008970439
0.026489543 0.0018390581 -0.0025749505 -0.0038134377 0.010006567 0.0005887965 -0.014702854 0.013078416
0.010747134 0.023735978 -0.004779038 0.006490105 0.0049748365 0.0065056807 0.012633859 -0.012084249
0.00042404476 0.009963141 -0.015535408 0.0019144356 -0.0004003622 -0.0014911268 0.00091855734 0.0017411582

bn1.running_mean f4 [128]
00000000: ce9f 2b3d db8c 91bd fbc5 243d 06a7 d43d
00000010: befe 8d3d b037 f73d a1cb 4e3d 3cf1 c73d
00000020: 1a64 aa3d 3894 c6bd 9977 bebc ea9c a43d
00000030: 4eac d2bb 6bfc f2bd f7aa 41bb 1da2 3abc
00000040: 3a23 033e cb34 ffbd f313 eebb 7166 16be
00000050: 55a0 073e 109e 503d 1e0f 17be 3dcb 07be
00000060: 9b44 55bd c0b0 25be 3fea e63c 1a44 fb3d
00000070: 3bb7 293e f877 abbc 436d 973d a275 1c3e
00000080: e786 5e3d f753 ac3c e768 1bbe ff70 493c
00000090: 8da8 8a3d 465a 583e 8bd6 23be 9c76 8abc
000000a0: 510a acbc 1855 7ebd da7f 82bc 136c f5bd
000000b0: 5e19 6cbe be18 88bd 2c0d 8abd 0e8b 1b3b
000000c0: 2026 083e 4db1 043d c20f c03c 0464 843d
000000d0: c53b b83c 503c 2c3e 5f9a b1bb c57b 22bd
000000e0: 6091 33bc a8bf 803d 0c92 b43d 4e9d 1d3d
000000f0: 33a7 39bd b7e9 7f3c 2b55 113d 8436 3d3e
00000100: 3061 bdbd 4553 0d3d d7fa a3bd 79ae ebbd
00000110: 4af7 4c3d a036 0bbd 688c 93bd d741 62bd
00000120: 7409 b9bb 2ff0 c43b 342f a13c de45 1abb
00000130: cfda 7cbd 63e3 993d 64b1 433e 53d8 d7bd
00000140: 44d0 d73d fd86 07be 22a3 6f3d 58a8 5b3d
00000150: e4b5 983d 396b 01bd 24d3 16bd 5424 0c3e
00000160: f162 c63d dbbe 61bd a15c 083e d7aa 993d
00000170: 5411 923d d128 9f3d 72a9 6c3c de84 393e
00000180: c41f dfbc 949e 97bd 4592 38be f8e2 253d
00000190: 8cf8 56be f297 b2bc 9474 b6bd 4a35 be3c
000001a0: a863 f8bd 31e2 03bd e132 e63c d849 13bd
000001b0: 49ad d4bd b2b7 c5bc 4c3e ab3d 29c5 7f3c
000001c0: 32c9 b0bd bc75 08be 49eb 6cbd 7be3 12be
000001d0: b797 2d3d 5750 cabc 91d5 b1bc 5738 c83b
000001e0: abf6 56be 793c 6dbe 6526 99bc 65f9 86bc
000001f0: e245 893d a802 9c3d e9ac 963b e036 203e
0.04190045 -0.07106944 0.04022787 0.1038342 0.06933354 0.120711684 0.050487164 0.09762809
0.08319874 -0.09696239 -0.023250388 0.080377415 -0.0064292317 -0.11864551 -0.0029551366 -0.01139119
0.12806407 -0.12461241 -0.0072655617 -0.14687516 0.13244756 0.05093199 -0.1475186 -0.13261123
-0.05206738 -0.16180706 0.02818787 0.12268849 0.16573803 -0.020931229 0.07393887 0.15279248
0.05432787 0.021036131 -0.15176736 0.012295007 0.0677043 0.21128187 -0.1599981 -0.01690226
-0.021001013 -0.06209287 -0.015930105 -0.11983504 -0.23056552 -0.06645344 -0.067407936 0.0023734006
0.13295794 0.03239565 0.023445014 0.06464389 0.022489438 0.16819882 -0.005420014 -0.039668817
-0.010959953 0.062865555 0.08816919 0.038480096 -0.04532547 0.015619687 0.035481613 0.18477827
-0.09247053 0.03450324 -0.08006828 -0.115078874 0.05004052 -0.03398764 -0.07204515 -0.05523857
-0.005646879 0.0060100774 0.019675829 -0.002354018 -0.06173211 0.07514074 0.19110638 -0.105393074
0.105377704 -0.13235088 0.058505185 0.053627342 0.07456568 -0.031596396 -0.036822453 0.13685733
0.0968684 -0.055113655 0.13316585 0.07503288 0.07132211 0.07771457 0.014444696 0.18117091
-0.027236827 -0.07403293 -0.18024547 0.040499657 -0.2099325 -0.021800969 -0.08908954 0.02321877
-0.12128383 -0.032198135 0.028100433 -0.035959095 -0.10384614 -0.024135444 0.083614916 0.0156109715
-0.08632125 -0.13326162 -0.057841573 -0.1434459 0.042381015 -0.024696512 -0.021708282 0.006110232
-0.20992534 -0.231676 -0.018695066 -0.016476342 0.06702782 0.07617694 0.004598249 0.15645933

bn1.running_var f4 [128]
00000000: 44e0 ac3e a774 673e 0d25 a53e f977 3a3e
00000010: fe80 c73e a0e6 ee3e 4c65 463e 203f 8b3e
00000020: 445d 703e 4c6b 5e3e 634b d33e b1fe b73e
00000030: 92cb bb3e ee8e a43e 4f3c 343e ac0b 0f3e
00000040: 9674 ca3e 2f33 833e d8cb ad3e a9dc e03e
00000050: d8dc e33e 3a28 aa3e 73f5 af3e 9cc4 943e
00000060: 3991 773e a27c ce3e 5673 a23e 572e ed3e
00000070: ffcd bc3e 02a5 ae3e 2a75 843e 708d b13e
00000080: 4cd1 893e 449c 953e 43a6 e73e 386e 813e
00000090: 4ad7 e83e 300b 2a3f 687b cd3e 2098 4b3e
000000a0: 5d56 5e3e f80f 6b3e 3cc0 a23e a84a 983e
000000b0: 9edb 053f 02d9 d43e 11ce 9c3e 784a 8b3e
000000c0: 59e1 c03e 34e6 8c3e c67b 983e fb9f c43e
000000d0: 0ed7 993e 2483 f03e 84a8 613e 5766 9c3e
000000e0: 5867 673e 1171 683e 75a2 c13e 0f4d 793e
000000f0: 1da8 643e 45ee 903e e58f 463e f43d 173f
00000100: 9478 603e 7b4f 733e 8c8e 663e 0a76 843e
00000110: 5ed6 4f3e 2222 8b3e 2288 793e a746 af3e
00000120: 1a1d 683e 08e2 603e b22a 863e b4a3 8f3e
00000130: 5722 8c3e a886 b63e 6bf3 d33e 08f6 8f3e
00000140: 77b9 933e de8f 823e 103f 7c3e ec84 913e
00000150: c2a7 e63e 7302 883e 782d a53e 86d1 db3e
00000160: a535 a63e f257 8e3e 8e05 b03e ee40 a03e
00000170: dab7 953e 874c a83e 7006 7d3e 4484 c83e
00000180: d37d b03e 40b2 993e fc17 c53e 60cd 8f3e
00000190: f87c dd3e 9959 c93e a049 7b3e 65b5 893e
000001a0: 99c7 803e 0613 433e 465c 693e 3fce 923e
000001b0: f310 863e 41e3 6b3e f565 4b3e 3aa6 ed3e
000001c0: fbb2 c93e d21d 903e 72f1 6b3e 3f08 b53e
000001d0: fbb1 1b3e 084c 993e 1603 453e 16e3 ab3e
000001e0: 3802 273f 4360 043f 2115 9c3e 0f13 ae3e
000001f0: 8623 923e 5720 743e f1d3 4f3e e987 ca3e
0.3376485 0.22603093 0.3225483 0.18209828 0.389656 0.46660328 0.19374579 0.27196598
0.23473078 0.21720618 0.41268453 0.35936502 0.3667875 0.32140297 0.17601131 0.13969296
0.39542073 0.25624987 0.33944583 0.4391835 0.44504428 0.33233815 0.3436695 0.2905625
0.24176492 0.40329462 0.3172862 0.46324417 0.36875913 0.34110266 0.2587064 0.3467822
0.26917493 0.29220784 0.45244035 0.25279403 0.45476753 0.6642332 0.40133214 0.1988225
0.21712632 0.2295531 0.31787288 0.29744458 0.52288234 0.41571814 0.30625966 0.27205253
0.37671927 0.2751938 0.29781932 0.38403305 0.30046886 0.46975052 0.2203694 0.3054683
0.22598016 0.22699381 0.37819257 0.24345802 0.22329755 0.28306785 0.19390829 0.5907891
0.21920997 0.23760788 0.22515315 0.25871307 0.20296618 0.2717448 0.24368337 0.3423359
0.22667351 0.21961224 0.2620445 0.28054583 0.2736995 0.3564961 0.4139665 0.28117394
0.28852436 0.25500387 0.24633431 0.28421724 0.45049864 0.2656437 0.32261252 0.4293329
0.32462803 0.27801472 0.34379238 0.31299537 0.2924183 0.32870886 0.24709487 0.3916341
0.34470996 0.30018806 0.3849486 0.28086376 0.43259406 0.3932617 0.24539804 0.26896206
0.2515228 0.19050226 0.22789106 0.28672978 0.26184806 0.23035909 0.19863112 0.46415883
0.39394364 0.2814775 0.23041323 0.35357854 0.15204613 0.2994082 0.19239458 0.3357169
0.6523776 0.51709384 0.3048487 0.33998916 0.28542727 0.23840462 0.20295693 0.39556816

fc2.weight f4 [64, 128]
00000000: d648 9a3d 9b09 babd 6ca8 4bbd 5a35 603d
00000010: fb6e a63d 42d7 3abc 0d34 aabc a28f abbd
00000020: 3553 60bd 3618 d03d defb 7bbd ac63 3abe
00000030: 4018 ea3d fb4a be3c 03aa f03d 6e78 ec3b
00000040: e8ba eb3d 7c24 853b 0e64 9ebd e068 86bd
00000050: f823 223e 244f 90ba 5823 053e 4807 b8bd
00000060: efb9 54bd a5a6 0fbd c177 353d 1445 f33d
00000070: 9b0e 61bd ca98 a6bd 163e 053e 5171 fb3d
00000080: 09a7 eb3d 5d4b 433d 1203 283d 395a 13be
00000090: be18 c33d 04a5 953d 1ed6 0cbc 6775 a03d
000000a0: 53f4 243d 0e0e f43d 9aef 28be 6a02 42bb
000000b0: 5dd5 c63c 7060 943d fefd 273d 7d8a 5bbd
000000c0: fdbc 323e a91d c6bc 127c 953b 14c0 1bbe
000000d0: e2c8 b8bd 0ae8 a43d b4e9 213d 6f8d 0a3e
000000e0: f96d 7c3c e447 033e b1f4 fabd 51a7 01be
000000f0: da4f b8bd fb70 1dbe 1b9d 33be d66f bcbd
00000100: 4930 ab3d 51df 10be 9a9b 173e 7ea2 eabd
00000110: 20f3 4d3d d839 d2bd f79e ebbd 55b6 23be
00000120: cc12 193e c8f9 34bd f852 25be fae7 1bbc
00000130: 1dda 14be 4da7 45be 5798 133e 9f0a b6bd
00000140: b1a3 c3bd f0d5 2b3c df7c 173e 5d1c 273e
00000150: 1a0f b73d d398 0cbe 4595 1c3d 91c9 d0bd
00000160: 1d54 3e3d 3850 47bc 3adb bcbd 426b 363e
00000170: 421f d8bd 55f6 713d bfbc b3bd d4a8 3b3d
00000180: d414 0fbd 8ef2 f5bd 0508 733d cf71 23be
00000190: d0ba ea3d 7720 0cbe 753e b8bd e254 103c
000001a0: 9855 29be cdb5 2a3d 627e be3c f7a7 20be
000001b0: e0df edbd a837 50bc e924 0d3d 9391 7cbc
000001c0: 3029 a4bd b5c9 963d 65e9 afbd 3a66 a13d
000001d0: b74b 043e 51d9 9bbd 6ea2 d03d ce90 35be
000001e0: 372e 63bd 4b96 853d fdd9 7b3c d1a8 55bd
000001f0: 0173 2fbd de7f c13d 6bf7 1dbe 2aff 913d
00000200: aeaa 19be efb0 95bc 59d7 743d 826c 5bbb
00000210: c908 40bd a506 d83d c50b e03d f8fc 23bd
00000220: 043d fa3d 297d efbd a58d d6bd 73ab 1b3e
00000230: 02ce e53b 1c8a 98bc 2f65 10be d50a 1dbe
00000240: 237c 9cbd 50a9 a23d 54ca 20be c381 9ebd
00000250: bbcd 1ebc df3c 10bd 44fa 313d 9226 0c3e
00000260: 50cd 013e 661e b7bc 2018 373e 9bfa ad3d
00000270: f8c8 29be 5b71 bf3d 9574 533d 2059 85bd
00000280: 0891 dbbd 19df 04be 48fd 2a3e 393e f93d
00000290: e8c6 a53d 2f03 383d 4a9c 2d3e ff90 4b3d
000002a0: 7360 133e 5a4a bfbd 2f29 51bc 7398 e7bc
000002b0: d60f 2ebe 1d65 3dbe 06f9 66bd 99a8 e5bd
000002c0: 98bc 87bd 6f9d 6fbd 749f 783d 4d3b a23b
000002d0: 9caf 1d3e 5a34 f4bd 53f6 5e3d 47db bebd
000002e0: 4773 bfbd 56f2 dd3d aade 5ebd bbac 4dbc
000002f0: eefd 1dbe 7ccd c6bd 8fa2 b03d d7cd 39bc
00000300: 1d06 c0bd e39e 663a 7e8d 1c3e d638 663d
00000310: 67e6 11be 4b38 97bc acf5 893b 17ea 3bbe
00000320: c99f c43b 3031 2c3e 5c4e 01be 6da2 92ba
00000330: 85f3 ca3d de8d a43d a7d3 803d a96f d6bc
00000340: e8d7 61bd de96 d1bd 46b2 e6bd d12e 1a3e
00000350: 2eba ce3c 19e5 083c 1276 c5bd e4df ccbd
00000360: 6f3b 1f3e 5867 f73d 8ee7 483c fbf0 d13c
00000370: ba72 d8bd 173f b23d ae05 a7bc 382f 1dbd
00000380: a548 9a3d e5f3 3cbe 9551 b03d f571 d03d
00000390: f409 bf3d 524a 9bbd e73f 943d e402 2b3e
000003a0: 497c 4abe 3535 6938 6b20 efbd 188c a93d
000003b0: bf6b 99bc 6d8d 93bd 9b52 883d c8ab 613c
000003c0: ce8a 9b3d cd08 3ebe 47ea 003e 073f e53c
000003d0: 9932 e9bd 8a85 bcbd 7797 1a3e 5ce0 1bbe
000003e0: 521d 95bd 4f91 333d d15b e13d 2494 b5bd
000003f0: 11b6 67bd 7b74 1bbd b001 e03d 949e cf3d
0.075334236 -0.09083863 -0.049721166 0.05473838 0.081266366 -0.0114038605 -0.020776773 -0.08377005
-0.054766852 0.10160868 -0.061519496 -0.18202084 0.114304066 0.023229113 0.11751177 0.007216505
0.11510259 0.004063187 -0.07733928 -0.06562972 0.15834033 -0.0011009914 0.13001764 -0.08985764
-0.051935133 -0.035071034 0.04430366 0.1187841 -0.05494557 -0.08134611 0.13011965 0.12277473
0.11506469 0.047679294 0.041018553 -0.14389886 0.095262036 0.07306865 -0.008595971 0.07834893
0.04027207 0.11916743 -0.1649765 -0.002960349 0.024271661 0.072449565 0.04101371 -0.05359887
0.17454906 -0.024184065 0.0045619095 -0.1520999 -0.0902269 0.080520704 0.039529517 0.13530515
0.015407079 0.12820393 -0.122537024 -0.12661482 -0.089996055 -0.1537513 -0.175404 -0.092010185
0.08358819 -0.14147688 0.14805451 -0.11456774 0.05028069 -0.10264939 -0.115049295 -0.15987523
0.14948577 -0.044183522 -0.16144931 -0.009515757 -0.14536329 -0.19302101 0.14413582 -0.088887446
-0.09552706 0.010488018 0.14793728 0.16319413 0.08938427 -0.13730173 0.038228292 -0.10194696
0.046466935 -0.012165122 -0.09221502 0.17814353 -0.10552837 0.05907281 -0.08776235 0.045815304
-0.034931973 -0.12009154 0.05933382 -0.15961383 0.11461413 -0.1368426 -0.08996288 0.0088093
-0.16536558 0.041677285 0.023253623 -0.15689074 -0.116149664 -0.012708582 0.03445903 -0.015415567
-0.080156684 0.07362691 -0.08589438 0.07880826 0.12919508 -0.07609809 0.10187231 -0.1773102
-0.055463996 0.06522807 0.015371797 -0.05216295 -0.042834286 0.09448217 -0.15426414 0.07128747
-0.15006515 -0.018272845 0.059775684 -0.0033481424 -0.04688338 0.10548142 0.10939745 -0.04003617
0.12218669 -0.11693794 -0.10476235 0.15202121 0.0070130834 -0.018620543 -0.14101098 -0.15336163
-0.07640865 0.0794245 -0.15702182 -0.07739594 -0.009692605 -0.0352143 0.043451563 0.13686588
0.12675977 -0.022353362 0.17880297 0.08495065 -0.1658057 0.09347793 0.051624853 -0.0651114
-0.10721022 -0.1297573 0.16698182 0.12170071 0.08094579 0.04492491 0.16954151 0.049698826
0.14392261 -0.09340353 -0.012766167 -0.028270936 -0.16998228 -0.18495603 -0.05638983 -0.11213798
-0.06627768 -0.05849975 0.06069894 0.004950917 0.15399021 -0.11924048 0.05443413 -0.093191676
-0.09348159 0.108372375 -0.054411568 -0.012553389 -0.15428898 -0.09707162 0.086247556 -0.01134058
-0.09376166 0.00087974797 0.1528835 0.056206547 -0.14248048 -0.01845946 0.0042101946 -0.18351017
0.006000493 0.16815639 -0.12627548 -0.0011187323 0.09909729 0.080348715 0.062903695 -0.02617629
-0.055137545 -0.10233854 -0.11264472 0.15056922 0.025235262 0.008355402 -0.09641661 -0.10003641
0.15550016 0.12080258 0.012262238 0.025627604 -0.10568757 0.0870344 -0.02038845 -0.03837511
0.07533387 -0.18452413 0.086093105 0.101779856 0.0932807 -0.07582535 0.07238751 0.16700321
-0.19773974 5.5601082e-05 -0.11676105 0.08278674 -0.018728135 -0.07204709 0.06656381 0.013773866
0.07594834 -0.18558045 0.1258937 0.027984155 -0.11386604 -0.09205158 0.15096842 -0.15222305
-0.07280983 0.04383975 0.11003841 -0.08866146 -0.056570116 -0.03795288 0.10937822 0.10137668

fc2.bias f4 [64]
00000000: 7ad5 8c37 6457 72b7 3bed afb7 68d3 a6b6
00000010: f593 4538 4f78 edb7 9330 d2b8 6639 4db7
00000020: ecd0 7136 eabc 88b7 b320 acb6 ac89 7837
00000030: c5d6 3b38 63da 4cb8 e256 fdb4 9792 9f35
00000040: 0957 1db7 46c8 4337 a6a0 10b5 5534 9d37
00000050: b748 e1b6 e343 7338 7d7a 29b8 555d 8536
00000060: b86c 90b7 9857 81b5 9657 2d35 880f 4d38
00000070: 7eab 7b36 2764 18b7 543e 6bb7 97ff d1b8
00000080: fa71 81b6 d7d9 bfb4 9e99 63b8 fd4b 9d37
00000090: 7d4e 68b7 2bba 0cb7 dd60 3038 b74e 72b7
000000a0: 787f 4938 6d91 0637 937a 1938 9462 c9b7
000000b0: b058 93b6 445e f1b7 ee66 2ab6 6569 9bb8
000000c0: fac5 0438 bb21 b836 01c1 03b6 a398 24b8
000000d0: 23f9 a7b5 498e 5337 ef85 d4b6 7f86 2a38
000000e0: 4a24 96b7 7987 1333 8589 9d34 d87b 8b36
000000f0: b536 e8b4 28c7 b837 8676 a8b7 3f46 01b9
1.6788708e-05 -1.4444671e-05 -2.0972095e-05 -4.9717964e-06 4.7106256e-05 -2.8308625e-05 -0.00010022628 -1.2232316e-05
3.6033407e-06 -1.6300433e-05 -5.129806e-06 1.4814006e-05 4.4784294e-05 -4.884078e-05 -4.7188138e-07 1.1889086e-06
-9.378194e-06 1.16695355e-05 -5.3877955e-07 1.8740227e-05 -6.7139877e-06 5.799894e-05 -4.0406816e-05 3.974574e-06
-1.7216764e-05 -9.636742e-07 6.4574976e-07 4.8890273e-05 3.7501736e-06 -9.0832245e-06 -1.4021603e-05 -0.00010013504
-3.857768e-06 -3.5735022e-07 -5.4264085e-05 1.8751243e-05 -1.3846552e-05 -8.387996e-06 4.205188e-05 -1.4442651e-05
4.804085e-05 8.020882e-06 3.65922e-05 -2.4006971e-05 -4.391266e-06 -2.8773335e-05 -2.5391887e-06 -7.410607e-05
3.1655632e-05 5.487554e-06 -1.9632864e-06 -3.92428e-05 -1.2514978e-06 1.2609708e-05 -6.3336843e-06 4.0656418e-05
-1.7898292e-05 3.4349316e-08 2.9343587e-07 4.15694e-06 -4.3253172e-07 2.2027249e-05 -2.0082352e-05 -0.00012328567

bn2.weight f4 [64]
00000000: efe9 7a3f 6b90 793f 6b02 813f e123 7c3f
00000010: fed1 793f 3f7e 7c3f 680a 783f b75e 7b3f
00000020: ec45 813f 49ad 803f 786d 7e3f 19d2 813f
00000030: 7e67 7b3f 181a 7b3f 9bde 803f edcb 7e3f
00000040: fbb5 803f efc1 7c3f f564 7c3f 5602 7b3f
00000050: 3de7 803f 3779 7b3f b59c 7f3f 9672 813f
00000060: 4423 803f 816e 813f 492b 813f 4ae6 783f
00000070: d2cd 823f 2ceb 803f 6889 803f fb48 7e3f
00000080: 27cc 7f3f 0f9e 803f 748d 7f3f cfd4 773f
00000090: 1e28 7f3f debb 7c3f 4df8 7b3f 65fe 7b3f
000000a0: 0f42 7a3f d129 7d3f 8b51 803f a26c 7d3f
000000b0: a473 813f cd1e 803f c7a3 7e3f 8699 773f
000000c0: 407d 803f 2a24 7a3f 5680 7f3f 8f2f 7b3f
000000d0: e933 7b3f 0ea0 7b3f 4398 7e3f 1588 7d3f
000000e0: ab1f 793f 7393 813f ce5d 7e3f 18a8 7c3f
000000f0: c791 803f b84b 7e3f 361c 813f 851c 783f
0.98013204 0.9748599 1.0078863 0.98492247 0.9758605 0.98630136 0.9689088 0.981914
1.0099463 1.0052882 0.99385786 1.0142242 0.9820479 0.9808669 1.0067934 0.99529916
1.0055536 0.9873342 0.9859155 0.9805044 1.0070568 0.98231834 0.9984849 1.0113094
1.0010762 1.0111848 1.0091335 0.97226393 1.0219061 1.0071769 1.0041933 0.9933011
0.99920887 1.0048236 0.99825215 0.96809095 0.9967059 0.9872416 0.9842575 0.9843505
0.9775705 0.9889193 1.0024885 0.98993886 1.0113416 1.00094 0.99468654 0.96718633
1.0038223 0.9771143 0.998052 0.98119444 0.98126084 0.982911 0.9945108 0.9903577
0.97313946 1.0123123 0.99361885 0.9869399 1.0044488 0.9933429 1.0086734 0.9691852

bn2.bias f4 [64]
00000000: 6c00 aabb 468d babb f943 163b 8707 6cbb
00000010: d745 7dbc 2915 16bc c227 dabb 2a41 78bc
00000020: 5283 c73b aef0 0d3c e94f abbb cc6e c7b9
00000030: edfa a0bb efea 03bc 15f0 18bb a934 08bc
00000040: f88b 1abc 0ab8 cdbb edd9 50bc 858d c0bc
00000050: c38a 103c bb55 6939 2512 093c 252f 873b
00000060: ff61 683c 3b92 6d3c af14 d43a da04 babc
00000070: 71c5 633c 0a22 7c3c 357f 3c3c 99e5 a4bb
00000080: 1ace 043c 793d cbbb 0f1d 31bc ecf2 e8bc
00000090: 742f 2bbc 73ee 233b d01a 023c 76b0 74ba
000000a0: 7223 91bc f9be 60bb 0b27 e339 c382 073b
000000b0: 490f abbb 6ec1 f13b 6922 2dbc 35a9 0ebc
000000c0: 38e4 d6bb ef58 96bc 88b1 64bb 43dd adbc
000000d0: c950 a2bb e1b3 82bc 2c85 00bc f292 5bbc
000000e0: 1cab bdbc afc7 443b ac04 623b b531 3cbb
000000f0: cd55 bc3a 1d35 d13b 17c1 34bb 99db bfbc
-0.0051880386 -0.0056931106 0.0022928698 -0.0036015229 -0.015458546 -0.009160318 -0.0066575715 -0.015152255
0.0060886526 0.00866334 -0.005228032 -0.00038038788 -0.004912725 -0.008051618 -0.002333646 -0.008313336
-0.009432785 -0.0062780427 -0.01274727 -0.023504982 0.008822146 0.00022252549 0.008366142 0.004125493
0.01418352 0.014500196 0.0016180481 -0.022707392 0.013902054 0.015388975 0.011504938 -0.005032253
0.008105779 -0.0062023965 -0.010810151 -0.028436147 -0.010448325 0.0025013953 0.007940963 -0.0009334156
-0.017717097 -0.0034293516 0.00043325903 0.0020677305 -0.005220328 0.007377795 -0.010567286 -0.008707334
-0.0065579675 -0.018352954 -0.0034895856 -0.02122367 -0.004953478 -0.015954914 -0.007844251 -0.013401734
-0.02315288 0.0030026247 0.0034487648 -0.002871615 0.0014368832 0.0063845054 -0.002758091 -0.023420142

bn2.running_mean f4 [64]
00000000: ff68 ccbe a3ba 2ebe a067 86bf 5455 50bd
00000010: a9f1 383f f3ed 363f a5b2 eabd 2c12 e2be
00000020: f2fc 363f cb1c 99be 3fc3 11bf 60b6 8b3c
00000030: e4ed 6cbe d87d debe e4f3 fe3e b6f6 073f
00000040: ae60 bb3e 8c81 e5be 0d2b 0c3d 20e2 e3bd
00000050: 2bbd b4be 584e dbbe 72a2 c3bc f95f 1dbf
00000060: 836e 3ebf 88ea 83bf 42c7 76be b48f 533f
00000070: 51c4 c33f d7c1 513e 3d2a a7be 102b 8b3f
00000080: 511a 0d3e 7713 023f a2ca ecbe eaa2 9cbf
00000090: 0977 ecbd 869b 80be 289f e53d f7fc 01bf
000000a0: d5f9 44be baf4 493d 8857 bebe c457 e63e
000000b0: 5df2 683d ad72 40bf 83e9 a23e 8229 3fbe
000000c0: e314 173e 78fb 0f3e 5af4 97be 4b9a ab3e
000000d0: cd6a bfbe fafb 853e bdfe 263e c93d 5e3f
000000e0: 457b 2ebf cd3d 993e b2f5 b3be 3c36 78be
000000f0: d75e 8fbe 742b 243f a0b5 013f b188 0dbf
-0.39923856 -0.17063384 -1.0500374 -0.050862625 0.72243744 0.7145683 -0.11459855 -0.4415449
0.71479714 -0.2990478 -0.56938547 0.017054737 -0.23137623 -0.43455386 0.4979545 0.53110826
0.36597198 -0.448254 0.034220744 -0.11127114 -0.35300574 -0.4283321 -0.02388117 -0.6147457
-0.7438738 -1.0305948 -0.24099448 0.8264115 1.5294286 0.204841 -0.32649413 1.0872517
0.1377957 0.5081095 -0.46248347 -1.2237217 -0.11546142 -0.25118655 0.11211997 -0.5077662
-0.19235928 0.049305655 -0.37176156 0.44988835 0.05687176 -0.7517498 0.3181878 -0.18668178
0.14754061 0.14060771 -0.29678613 0.33516154 -0.3738617 0.26168805 0.16308112 0.86813027
-0.68156844 0.29929963 -0.35148388 -0.24239439 -0.28002045 0.64128804 0.5066776 -0.552867

bn2.running_var f4 [64]
00000000: 49f4 c43e ed88 1c3f 700c fc3e 3962 1d3f
00000010: a6bb 0e3f d8e5 ee3e d803 163f 800a 7b3f
00000020: b6f9 b53e c959 b83e 2b09 0e3f 08ea 693e
00000030: 8b0a e63e 6d58 113f 05a0 b13e f7ca f63e
00000040: 9cca 633e c4d1 013f 9674 043f 8a23 df3e
00000050: 175a 373f ce2f 1b3f 7d54 0e3f 161e 1a3f
00000060: d899 a63e 8b22 d63e 8452 f13e 57ba c23e
00000070: 8fd8 c43e f0ca 203f c574 d33e b1d7 ef3e
00000080: 2dcd 033f 1b1e ba3e 316d 0a3f 852b 103f
00000090: e6f4 4a3f 2df1 b93e 28ba f43e afb4 f23e
000000a0: 5803 cf3e 2d8e ee3e 0627 9c3e 50df 223f
000000b0: 8b33 183f b637 383f 66a1 043f 676a 013f
000000c0: 4169 d83e 84ba ed3e d6c7 0a3f 09dc ad3e
000000d0: 1562 0d3f a3fa 0b3f 7d6a 023f 5838 c73e
000000e0: 793c 5f3f f263 f53e e9f7 413f a85f 323f
000000f0: 22ab 423f 405b 163f 908c 2b3f a7ef f33e
0.38467625 0.6114643 0.4922824 0.61478 0.5575508 0.46659732 0.58599615 0.98062897
0.35542077 0.36006 0.5548274 0.22843182 0.4492992 0.5677555 0.34692398 0.48201725
0.22245258 0.507107 0.51740396 0.43581802 0.7162184 0.6061982 0.5559767 0.6020216
0.32539248 0.4182323 0.47133267 0.3803279 0.3844647 0.6280966 0.41300026 0.46844247
0.5148495 0.36351094 0.5407286 0.56316406 0.79279935 0.36316815 0.47798276 0.47403476
0.4043224 0.46592847 0.30498523 0.63622 0.5945365 0.7196001 0.51808774 0.5055298
0.42267802 0.46431363 0.54211175 0.33956936 0.55227786 0.54679316 0.5094374 0.38910174
0.8720165 0.47927815 0.75768906 0.6967721 0.7604238 0.58732986 0.67011356 0.47643778

fc4.weight f4 [2, 64]
00000000: 6629 8fbe b65f c23b e80a 503e cbda b3bd
00000010: 4817 0d3e ba19 bbbc 558a 67be 8e96 383e
00000020: d523 69be 2999 1a3e e1b4 43be 12c2 cf3d
00000030: e1e7 50be 16a1 84be 4a66 883e 5f25 733e
00000040: d9f8 8a3e e8f2 423e 100a 763e 433a 893e
00000050: 2864 003e 2a5f 8cbe ba09 28be a8e2 d8bc
00000060: f39d 2abd 9e4a b8bd 8e03 8f3d 4bb4 483e
00000070: 2fc0 e03d dd3c 45be 15e4 c33b e8b0 873e
00000080: 32fe 41bd 0526 223e 65eb a33d 5560 863e
00000090: 52db 493e 7e36 8d3d 57c3 60be d703 a9bd
000000a0: bee8 323e cb41 923d da78 30bc c805 8e3d
000000b0: 688c f3bd c070 8fbe 9b09 00be 7f7a 84be
000000c0: 009b 5a3e e0bc 693d 1130 513c 1bd4 3c3e
000000d0: 6b3a 8fbe e3ca 03be fa6c f03d 67d9 f73b
000000e0: 9f9d 753e f929 e6bd f345 9abd 65a1 2bbe
000000f0: 4c26 d23d 62e5 e8bd 1373 0c3e ff1d 8a3e
00000100: a7fd 9a3d 6f53 043e 100a 873e a16e 183d
00000110: 038e 07be ce57 6abe 64e0 1e3e 0e74 8bbe
00000120: 51c8 92be 93e9 5b3e 74b1 aa3c 3ea9 0f3d
00000130: 5ddd 09bc 46de 57bd 8993 553e 4caa 6f3e
00000140: d989 723e b026 7e3e fb92 0ebe 6c86 113e
00000150: 81cc 703e b737 c5bd b894 fd3b 9fc6 a83d
00000160: 2e9e d03d d70f dc3d 1026 0e3d 05a9 31be
00000170: a2b5 393c ebe8 febd a096 ef3d bd55 4bbe
00000180: 2f5d d53d 703f b7bd 987c 33be 472e 05be
00000190: 4b47 893d ef06 873e 0e7e c13d 602a 353e
000001a0: cae1 72bc 0bba d1bd ce20 e6bd 0b9c 833e
000001b0: 2abb 31be 42ee b13d ea9f 36be 309f 0e3e
000001c0: 8d72 2d3d a0d2 37be aac6 1dbc 789f 90bd
000001d0: 4636 15be 47f8 1c3d 3235 173c 96b6 58be
000001e0: 3d36 33be 7a56 66be e6dc 1c3e 5721 02be
000001f0: 9794 033e 35d0 3c3d 8902 ebbb ecc6 0c3d
-0.27961272 0.00593182 0.2031666 -0.08781966 0.13778412 -0.022839416 -0.22611363 0.18026182
-0.22767575 0.15097488 -0.19111969 0.10144438 -0.20400955 -0.2590415 0.2664054 0.23744725
0.2714298 0.19037974 0.24027276 0.26802263 0.12538207 -0.27416354 -0.1640996 -0.026475266
-0.04165454 -0.08998607 0.069831 0.19600026 0.10974156 -0.19261499 0.005978117 0.26502156
-0.04736156 0.15834816 0.08003882 0.2624537 0.1971257 0.06895159 -0.21949516 -0.082526855
0.17471597 0.07141455 -0.010771001 0.069346964 -0.11892015 -0.2801571 -0.12503664 -0.25874707
0.2134819 0.05706489 0.012767808 0.18440287 -0.27974257 -0.12870364 0.11739536 0.007563758
0.23985909 -0.112384744 -0.07532873 -0.16760786 0.10261211 -0.11371876 0.13715772 0.2697601
0.075679116 0.12922452 0.26374865 0.03721488 -0.13237767 -0.22885057 0.15515286 -0.2723698
-0.28668454 0.2147582 0.02083657 0.03507351 -0.0084145935 -0.05270221 0.20857061 0.23404807
0.23685397 0.24819446 -0.13923256 0.14211434 0.23515512 -0.096297674 0.007738676 0.08241009
0.101864204 0.10745209 0.034704268 -0.17349632 0.011334809 -0.12446769 0.11698651 -0.19856925
0.10418164 -0.089476466 -0.17527997 -0.13005935 0.06703051 0.26372477 0.09447871 0.17691946
-0.01482434 -0.10240563 -0.11236726 0.2570499 -0.17356554 0.08688022 -0.1783444 0.13927913
0.042345572 -0.17951441 -0.009629885 -0.07061666 -0.14571485 0.038322713 0.009228991 -0.21163401
-0.17501159 -0.22493926 0.15318641 -0.1270803 0.12849651 0.046097 -0.007171933 0.034369394

fc4.bias f4 [2]
00000000: 15de 2fbc ecdd 2f3c
-0.010734101 0.010734063
