HealthAIoT/vm_selector_model.pth (torch, 3616 bytes, 4 tensors)

layer1.weight f4 [32, 8]
0	0xbcb0cd21	-0.021582188
1	0xbe8a8e50	-0.270617
2	0x353029e6	6.562608e-07
3	0xbc7ed61f	-0.01555398
4	0x3c87e60a	0.016589183
5	0xbe5188bd	-0.20462318
6	0x3e6b4bb1	0.22978093
7	0x3e9f9fef	0.31176707
8	0xbe3ef811	-0.18649317
9	0x3ebe6a86	0.37190646
10	0xb2aa2f65	-1.9812157e-08
11	0x3deb3709	0.114851065
12	0x3e8dd043	0.27697954
13	0x3c88bc1a	0.016691256
14	0xbd725a04	-0.059167877
15	0xbcd95301	-0.026528837
16	0xbdf76057	-0.12078922
17	0xbe8849b4	-0.2661873
18	0xbce45f19	-0.027877377
19	0x3e10bd70	0.14134765
20	0xbdc562ae	-0.09637962
21	0x3e8dd9a6	0.27705115
22	0xbc3f1393	-0.011662382
23	0x3eb3906e	0.3507113
24	0x3ee39872	0.44452244
25	0x3e5a2c17	0.21305881
26	0x3bb7744b	0.00559858
27	0x3ec2f07b	0.38074097
28	0x3dae3cef	0.08507716
29	0x3e3c3491	0.18379427
30	0xbe1d0876	-0.15335259
31	0x3e38caa2	0.18046048
32	0x3e3f6f44	0.18694788
33	0x3efb8227	0.49122736
34	0xb905ead2	-0.00012771346
35	0x3cd11055	0.025520483
36	0x3cd308b0	0.025760978
37	0xbda895d3	-0.08231702
38	0xbed1949b	-0.4093369
39	0xbe8f1c3c	-0.2795123
40	0xbe043577	-0.1291102
41	0xbf068098	-0.5253997
42	0xbcdf264b	-0.02723994
43	0xbead75b0	-0.3387885
44	0xbeba82b7	-0.36427853
45	0x3ea212ce	0.31654972
46	0x3df974a2	0.12180449
47	0x3e8bfb2d	0.2734007
48	0xbe166f1f	-0.14690827
49	0xbef23b6c	-0.4731096
50	0xbcc3a8fe	-0.023884293
51	0x3dcf556e	0.10123716
52	0x3e60d48e	0.21956083
53	0x3f0ff7d8	0.56237555
54	0xbdbfcad9	-0.09364862
55	0x3d479ca4	0.04873337
56	0x3e9fd1ac	0.31214654
57	0x3e0d7c3d	0.13816924
58	0x3dcd4e0a	0.100246504
59	0x3e6cd48f	0.2312796
60	0xbe9b698d	-0.30353966
61	0x3e7b7acd	0.24558564
62	0x3d05aa48	0.032633096
63	0x3ec933a9	0.39297226
64	0x3d4a1189	0.04933313
65	0xbde59732	-0.11210479
66	0x331785ac	3.5279e-08
67	0x3cd11d6f	0.02552673
68	0x3e2e18d2	0.17001656
69	0xbef04264	-0.46925652
70	0x3ca41a73	0.020032143
71	0x3e8b427e	0.27199167
72	0xbe6f83d3	-0.2339013
73	0x3e1ee703	0.15517811
74	0xb3f14a39	-1.1235938e-07
75	0xbd941e46	-0.07232337
76	0x3d142563	0.036168467
77	0xbe42e9ed	-0.19034548
78	0x3eb9e63c	0.36308467
79	0x3e114aea	0.14188734
80	0xbd96ad66	-0.07357292
81	0x3e558c4f	0.20854305
82	0x3c09696f	0.008386954
83	0xbe8feefc	-0.28112018
84	0x3e5992dd	0.2124743
85	0x3d08d972	0.033410497
86	0x3e807c02	0.2509461
87	0x3df77079	0.12081999
88	0xbdfbd073	-0.12295618
89	0xbe24b38b	-0.16084115
90	0xbd2591d6	-0.040422283
91	0x3e7dfbe0	0.24803114
92	0x3e9cbe74	0.30614054
93	0x3d7be66d	0.061499048
94	0xbdf87447	-0.12131553
95	0xbe914d3b	-0.28379235
96	0xbe80ac55	-0.2513148
97	0xbf010c95	-0.50409824
98	0xbb2e22d3	-0.002657105
99	0xbe820c3b	-0.25399956
100	0xbdddc17a	-0.10827918
101	0x3eec1217	0.4610755
102	0x3e4f3acb	0.20237271
103	0x3e55a377	0.20863138
104	0xbe69cc0b	-0.22831742
105	0x3d78fde3	0.060789
106	0x30e50ad2	1.6665018e-09
107	0x3e960eeb	0.29308257
108	0xbea204d2	-0.31644303
109	0xbeb1bbd4	-0.34713614
110	0xbedb6c92	-0.4285627
111	0xbd4307e1	-0.047614936
112	0x3e30095c	0.1719107
113	0x3eaf2371	0.34206727
114	0x3c45aeee	0.012065632
115	0x3e9232cd	0.28554383
116	0x3e45a4ea	0.19301191
117	0x3e148fdc	0.14508003
118	0x3d32cf89	0.043654952
119	0x3c3c808c	0.011505257
120	0x3e7a64ac	0.24452466
121	0x3f045f4f	0.5170793
122	0x3aa93661	0.0012909883
123	0x3e6cb043	0.23114114
124	0x3de22f78	0.1104421
125	0xbe164a50	-0.14676785
126	0xbe2ff2d1	-0.17182471
127	0x3dc7d6ba	0.09757753
128	0x3ed2b792	0.41155678
129	0xbdc271bb	-0.094943486
130	0x3c36361f	0.011121302
131	0x3e938f14	0.28820097
132	0xbe5a650d	-0.2132761
133	0xbd2bbb50	-0.041926682
134	0x3dbe74e1	0.09299637
135	0x3e2b226a	0.16712347
136	0xbea70433	-0.3262039
137	0xbe8df041	-0.27722362
138	0x3db108bf	0.08644246
139	0x3e39fa4e	0.1816189
140	0x3e020f07	0.12701045
141	0x3d8ba7a7	0.068190865
142	0x3dda8eba	0.10671754
143	0x3e9fdca3	0.3122302
144	0x3d035e0e	0.03207212
145	0xbe6c6780	-0.23086357
146	0x3bf6234f	0.0075115333
147	0x3ea9e2b1	0.33180764
148	0x3e26ef61	0.16302253
149	0x3e336495	0.17518838
150	0x3dacc1fc	0.08435437
151	0x3e0d98be	0.13827798
152	0xbe5b08ef	-0.21390127
153	0xbf0d6aee	-0.55241287
154	0x3d3ace9b	0.04560719
155	0x3d666a35	0.05625363
156	0x3e6eed6e	0.2333276
157	0x3f04980b	0.517945
158	0xbe8dcf4e	-0.27697223
159	0xbd103141	-0.035203222
160	0x3e4bb46a	0.19893041
161	0x3d9336b8	0.07188171
162	0xbcbe6574	-0.023241736
163	0x3e5aa948	0.21353638
164	0x3c090853	0.008363801
165	0xbe860858	-0.2617824
166	0xbdbc374d	-0.09190235
167	0x3dcf25f4	0.10114661
168	0xbee92016	-0.45532292
169	0x3f097a62	0.53702366
170	0xbd0c5254	-0.0342582
171	0xbec11e91	-0.37718633
172	0x3df075e1	0.117412336
173	0xbeea75bd	-0.45792952
174	0xbeb4cb6f	-0.35311458
175	0xbe70404b	-0.23462026
176	0xbdb14fe1	-0.08657814
177	0x3e748524	0.23878914
178	0x3c103c65	0.008803462
179	0xbce18e07	-0.027533544
180	0x3e96cb3f	0.2945194
181	0xbe869c44	-0.26291096
182	0x3d4f7ddb	0.050657135
183	0xbe4b1930	-0.19833827
184	0x3e191abf	0.14951609
185	0x3dd4fec8	0.10400158
186	0x3de1d76c	0.110274166
187	0xbde941c0	-0.11389494
188	0x3e908777	0.2822835
189	0xbeefe81e	-0.4685678
190	0xbe264aa5	-0.16239412
191	0x3da4b8bc	0.08043048
192	0x3defe4ff	0.117135994
193	0x3e8d9d8a	0.27659255
194	0xb108d956	-1.9914146e-09
195	0xbd0ef97b	-0.034905892
196	0xbe2fa7d3	-0.17153864
197	0x3dfc4b4d	0.1231905
198	0xbe5fad6e	-0.21843502
199	0x3d41e993	0.047341894
200	0x3dc79a34	0.09746209
201	0x3d11b010	0.035568297
202	0xbcbb6e69	-0.022879796
203	0x3e279f30	0.16369319
204	0x3d413f0e	0.047179274
205	0x3ee536a7	0.4476826
206	0x3bdabc45	0.0066752755
207	0x3e2b191d	0.16708799
208	0xbea012c0	-0.31264305
209	0x3e94a0f4	0.29029047
210	0x3c974123	0.018463677
211	0x3db07900	0.08616829
212	0xbe879fb7	-0.2648904
213	0xbefef263	-0.497943
214	0xbee91d4b	-0.4553016
215	0xbd9eba99	-0.077504344
216	0xbed374e3	-0.41300115
217	0x3f08a184	0.53371453
218	0xb4cf2d65	-3.8589783e-07
219	0x3ddf443b	0.10901686
220	0xbe7049a4	-0.23465592
221	0xbecf5769	-0.40496376
222	0xbe831102	-0.25598913
223	0xbea05a52	-0.3131891
224	0xbd8ab5b5	-0.06772939
225	0xbf0799ec	-0.5296924
226	0xb9231221	-0.00015551645
227	0x3e951683	0.29118738
228	0xbc8b14fb	-0.016977778
229	0x3c5ca6a7	0.013467467
230	0x3e9c8842	0.30572706
231	0xbdc8774b	-0.09788378
232	0x3e39a2c3	0.18128495
233	0x3e93beab	0.28856406
234	0xbcecd371	-0.028909417
235	0xbd188950	-0.037240326
236	0x3dcc38e3	0.09971788
237	0xbe416bb4	-0.18888742
238	0x3de81ddd	0.11333821
239	0xbd9d5634	-0.076824576
240	0xbe1384ab	-0.14406078
241	0xbf09fa52	-0.53897583
242	0xb0bb7a73	-1.3640843e-09
243	0xbe604e02	-0.21904758
244	0x3dfc2a02	0.123127
245	0x3e6dce24	0.23223168
246	0xbf026144	-0.50929666
247	0xbeaf5796	-0.3424651
248	0x3e0f4b24	0.13993508
249	0xbea60a93	-0.32429942
250	0xba3157de	-0.00067651074
251	0x3d6434c7	0.055714395
252	0xbe66edbe	-0.22551629
253	0x3ef95e3e	0.48704714
254	0x3ab91296	0.0014119919
255	0x3e327f5b	0.17431395

layer1.bias f4 [32]
0	0x3db59bbb	0.08867594
1	0xbe959f2d	-0.29223004
2	0x3e884075	0.26611677
3	0xbcdfad18	-0.027304217
4	0x3e4e4b9e	0.20146033
5	0x3d83974d	0.06425343
6	0x3ec3ae31	0.38218835
7	0xbec24f66	-0.379512
8	0x3eb65da5	0.3561832
9	0xbed5a176	-0.41724747
10	0x3e7b1e85	0.24523361
11	0xbe47f462	-0.19526818
12	0x3de118c7	0.10991054
13	0x3dec27c5	0.11531023
14	0xbd6f8da5	-0.058484692
15	0x3ebca69c	0.36845863
16	0xbe5501f0	-0.2080152
17	0x3e8da1c7	0.2766249
18	0xbe5f6f1b	-0.21819727
19	0x3ea3264d	0.3186516
20	0xbe5234e1	-0.20527984
21	0x3da6fbfd	0.08153532
22	0xbe92fda0	-0.28709126
23	0x3e8e0d8c	0.2774471
24	0xbbf1cfe0	-0.007379517
25	0xbe110ea2	-0.14165738
26	0x3da31975	0.0796384
27	0x3e22d0b1	0.15899922
28	0x3ea8fa67	0.33003542
29	0x3e2947b4	0.16531259
30	0xbcdb2aab	-0.026753744
31	0x3e7f333d	0.2492189

layer2.weight f4 [2, 32]
0	0xbdabd12f	-0.08389508
1	0x3ea5938a	0.32339126
2	0xbe4d85b7	-0.2007054
3	0x3de54bcf	0.111961
4	0x3f08260f	0.5318307
5	0xbd628270	-0.055300176
6	0xbdcd3383	-0.10019591
7	0xbe7b5b82	-0.24546626
8	0x3d654bf7	0.05598065
9	0xbedef8b8	-0.43549132
10	0xbe728c6a	-0.23686376
11	0x3e5d4096	0.21606669
12	0x3e1ff664	0.15621334
13	0x3e1c9555	0.1529134
14	0x3e9603a5	0.29299656
15	0x3eb196f9	0.34685495
16	0x3d248a97	0.040171232
17	0xbec50690	-0.3848157
18	0x3e92b3df	0.28652856
19	0xbebc4418	-0.367707
20	0x3d900cd6	0.07033698
21	0x3ce6fb93	0.028196132
22	0xbe07b5de	-0.1325297
23	0x3e538420	0.2065587
24	0xbe339714	-0.175381
25	0xbdac17e9	-0.08402998
26	0x3f2ed872	0.6829902
27	0x3ed94309	0.42433956
28	0x3dcdc418	0.100471675
29	0x3f0101e8	0.50393534
30	0xbf06b237	-0.52615684
31	0xbf085ca4	-0.5326636
32	0x3d3ab833	0.045585822
33	0xbe83cf24	-0.25743973
34	0x3ee96ba8	0.45589948
35	0xbe43fbf9	-0.19139089
36	0xbe19ee9a	-0.15032426
37	0x3ead888d	0.33893242
38	0x3ed7e500	0.421669
39	0x3e155149	0.14581789
40	0xbe482443	-0.19545083
41	0x3dd5ae55	0.10433642
42	0x3e546c95	0.20744546
43	0xbe9ad10c	-0.30237615
44	0x3f086bf1	0.53289706
45	0xbe4d7037	-0.20062338
46	0xbe1b5cb2	-0.15172079
47	0xbe149584	-0.1451016
48	0xbe1bad8b	-0.1520292
49	0x3e37a076	0.17932305
50	0x3dce9e81	0.10088826
51	0x3ef49eb5	0.47777334
52	0x3e7c8289	0.2465917
53	0xbedff390	-0.4374051
54	0x3e15fde4	0.14647633
55	0xbe46e44b	-0.19423024
56	0xbd0d5fba	-0.03451512
57	0x3ea589ea	0.32331783
58	0xbe1025cb	-0.14076917
59	0xbbab2b80	-0.0052236915
60	0x3ecc38a4	0.39886963
61	0xbf047007	-0.5173344
62	0x3f15cfd6	0.5852026
63	0x3ef7af84	0.48376095

layer2.bias f4 [2]
0	0x3d605e3c	0.05477737
1	0xbd7ece4b	-0.062208455
